
                   from  n    params  module                                       arguments                     
  0                  -1  1       464  ultralytics.nn.modules.conv.Conv             [3, 16, 3, 2]                 
  1                  -1  1      4672  ultralytics.nn.modules.conv.Conv             [16, 32, 3, 2]                
  2                  -1  1      7360  ultralytics.nn.modules.block.C2f             [32, 32, 1, True]             
  3                  -1  1     18560  ultralytics.nn.modules.conv.Conv             [32, 64, 3, 2]                
  4                  -1  2     49664  ultralytics.nn.modules.block.C2f             [64, 64, 2, True]             
  5                  -1  1     73984  ultralytics.nn.modules.conv.Conv             [64, 128, 3, 2]               
  6                  -1  2    197632  ultralytics.nn.modules.block.C2f             [128, 128, 2, True]           
  7                  -1  1    295424  ultralytics.nn.modules.conv.Conv             [128, 256, 3, 2]              
  8                  -1  1    460288  ultralytics.nn.modules.block.C2f             [256, 256, 1, True]           
  9                  -1  1    164608  ultralytics.nn.modules.block.SPPF            [256, 256, 5]                 
 10                  -1  1         0  torch.nn.modules.upsampling.Upsample         [None, 2, 'nearest']          
 11             [-1, 6]  1         0  ultralytics.nn.modules.conv.Concat           [1]                           
 12                  -1  1    148224  ultralytics.nn.modules.block.C2f             [384, 128, 1]                 
 13                  -1  1         0  torch.nn.modules.upsampling.Upsample         [None, 2, 'nearest']          
 14             [-1, 4]  1         0  ultralytics.nn.modules.conv.Concat           [1]                           
 15                  -1  1     37248  ultralytics.nn.modules.block.C2f             [192, 64, 1]                  
 16                  -1  1         0  torch.nn.modules.upsampling.Upsample         [None, 2, 'nearest']          
 17             [-1, 2]  1         0  ultralytics.nn.modules.conv.Concat           [1]                           
 18                  -1  1      9408  ultralytics.nn.modules.block.C2f             [96, 32, 1]                   
 19                  -1  1      9280  ultralytics.nn.modules.conv.Conv             [32, 32, 3, 2]                
 20            [-1, 15]  1         0  ultralytics.nn.modules.conv.Concat           [1]                           
 21                  -1  1     31104  ultralytics.nn.modules.block.C2f             [96, 64, 1]                   
 22                  -1  1     36992  ultralytics.nn.modules.conv.Conv             [64, 64, 3, 2]                
 23            [-1, 12]  1         0  ultralytics.nn.modules.conv.Concat           [1]                           
 24                  -1  1    123648  ultralytics.nn.modules.block.C2f             [192, 128, 1]                 
 25                  -1  1    147712  ultralytics.nn.modules.conv.Conv             [128, 128, 3, 2]              
 26             [-1, 9]  1         0  ultralytics.nn.modules.conv.Concat           [1]                           
 27                  -1  1    493056  ultralytics.nn.modules.block.C2f             [384, 256, 1]                 
 28    [18, 21, 24, 27]  1   1044816  ultralytics.nn.modules.head.Detect           [80, [32, 64, 128, 256]]      
/root/miniconda/envs/pytorch/lib/python3.8/site-packages/torch/nn/functional.py:718: UserWarning: Named tensors and all their associated APIs are an experimental feature and subject to change. Please do not use them for anything important until they are released as stable. (Triggered internally at  /pytorch/c10/core/TensorImpl.h:1156.)
  return torch.max_pool2d(input, kernel_size, stride, padding, dilation, ceil_mode)
…
mentum=0.937, weight_decay=0.0005, warmup_epochs=3.0, warmup_momentum=0.8, warmup_bias_lr=0.1, box=7.5, cls=0.5, dfl=1.5, pose=12.0, kobj=1.0, label_smoothing=0.0, nbs=64, hsv_h=0.015, hsv_s=0.7, hsv_v=0.4, degrees=0.0, translate=0.1, scale=0.5, shear=0.0, perspective=0.0, flipud=0.0, fliplr=0.5, mosaic=1.0, mixup=0.0, copy_paste=0.0, cfg=None, tracker=botsort.yaml, save_dir=runs/detect/train3
Overriding model.yaml nc=80 with nc=1

                   from  n    params  module                                       arguments                     
  0                  -1  1       464  ultralytics.nn.modules.conv.Conv             [3, 16, 3, 2]                 
  1                  -1  1      4672  ultralytics.nn.modules.conv.Conv             [16, 32, 3, 2]                
  2                  -1  1      7360  ultralytics.nn.modules.block.C2f             [32, 32, 1, True]             
  3                  -1  1     18560  ultralytics.nn.modules.conv.Conv             [32, 64, 3, 2]                
  4                  -1  2     49664  ultralytics.nn.modules.block.C2f             [64, 64, 2, True]             
  5                  -1  1     73984  ultralytics.nn.modules.conv.Conv             [64, 128, 3, 2]               
  6                  -1  2    197632  ultralytics.nn.modules.block.C2f             [128, 128, 2, True]           
  7                  -1  1    295424  ultralytics.nn.modules.conv.Conv             [128, 256, 3, 2]              
  8                  -1  1    460288  ultralytics.nn.modules.block.C2f             [256, 256, 1, True]           
  9                  -1  1    164608  ultralytics.nn.modules.block.SPPF            [256, 256, 5]                 
 10                  -1  1         0  torch.nn.modules.upsampling.Upsample         [None, 2, 'nearest']          
 11             [-1, 6]  1         0  ultralytics.nn.modules.conv.Concat           [1]                           
 12                  -1  1    148224  ultralytics.nn.modules.block.C2f             [384, 128, 1]                 
 13                  -1  1         0  torch.nn.modules.upsampling.Upsample         [None, 2, 'nearest']          
 14             [-1, 4]  1         0  ultralytics.nn.modules.conv.Concat           [1]                           
 15                  -1  1     37248  ultralytics.nn.modules.block.C2f             [192, 64, 1]                  
 16                  -1  1         0  torch.nn.modules.upsampling.Upsample         [None, 2, 'nearest']          
 17             [-1, 2]  1         0  ultralytics.nn.modules.conv.Concat           [1]                           
 18                  -1  1      9408  ultralytics.nn.modules.block.C2f             [96, 32, 1]                   
 19                  -1  1      9280  ultralytics.nn.modules.conv.Conv             [32, 32, 3, 2]                
 20            [-1, 15]  1         0  ultralytics.nn.modules.conv.Concat           [1]                           
 21                  -1  1     31104  ultralytics.nn.modules.block.C2f             [96, 64, 1]                   
 22                  -1  1     36992  ultralytics.nn.modules.conv.Conv             [64, 64, 3, 2]                
 23            [-1, 12]  1         0  ultralytics.nn.modules.conv.Concat           [1]                           
 24                  -1  1    123648  ultralytics.nn.modules.block.C2f             [192, 128, 1]                 
 25                  -1  1    147712  ultralytics.nn.modules.conv.Conv             [128, 128, 3, 2]              
 26             [-1, 9]  1         0  ultralytics.nn.modules.conv.Concat           [1]                           
 27                  -1  1    493056  ultralytics.nn.modules.block.C2f             [384, 256, 1]                 
 28    [18, 21, 24, 27]  1    617364  ultralytics.nn.modules.head.Detect           [1, [32, 64, 128, 256]]       
YOLOv8n-p2 summary: 277 layers, 2926692 parameters, 2926676 gradients, 12.4 GFLOPs

[34m[1mTensorBoard: [0mStart with 'tensorboard --logdir runs/detect/train3', view at http://localhost:6006/
[34m[1mAMP: [0mrunning Automatic Mixed Precision (AMP) checks with YOLOv8n...
[34m[1mAMP: [0mchecks passed ✅
WARNING ⚠️ updating to 'imgsz=640'. 'train' and 'val' imgsz must be an integer, while 'predict' and 'export' imgsz may be a [h, w] list or an integer, i.e. 'yolo export imgsz=640,480' or 'yolo export imgsz=640'
…
